==> Preparing data ..
Files already downloaded and verified
Files already downloaded and verified
==> Building ResNet..
Learnable parameters:  11.220132 M
ResNet(
  (conv1): Conv2d(3, 64, kernel_size=(3, 3), stride=(1, 1), padding=(1, 1), bias=False)
  (bn1): BatchNorm2d(64, eps=1e-05, momentum=0.1, affine=True, track_running_stats=True)
  (relu): ReLU(inplace=True)
  (layer1): Sequential(
    (0): BasicBlock(
      (conv1): QuantizableDNNS_QConv2d(64, 64, kernel_size=(3, 3), stride=(1, 1), padding=(1, 1), bias=False, bit=32)
      (bn1): BatchNorm2d(64, eps=1e-05, momentum=0.1, affine=True, track_running_stats=True)
      (relu): ReLU(inplace=True)
      (conv2): QuantizableDNNS_QConv2d(64, 64, kernel_size=(3, 3), stride=(1, 1), padding=(1, 1), bias=False, bit=32)
      (bn2): BatchNorm2d(64, eps=1e-05, momentum=0.1, affine=True, track_running_stats=True)
    )
    (1): BasicBlock(
      (conv1): QuantizableDNNS_QConv2d(64, 64, kernel_size=(3, 3), stride=(1, 1), padding=(1, 1), bias=False, bit=32)
      (bn1): BatchNorm2d(64, eps=1e-05, momentum=0.1, affine=True, track_running_stats=True)
      (relu): ReLU(inplace=True)
      (conv2): QuantizableDNNS_QConv2d(64, 64, kernel_size=(3, 3), stride=(1, 1), padding=(1, 1), bias=False, bit=32)
      (bn2): BatchNorm2d(64, eps=1e-05, momentum=0.1, affine=True, track_running_stats=True)
    )
  )
  (layer2): Sequential(
    (0): BasicBlock(
      (conv1): QuantizableDNNS_QConv2d(64, 128, kernel_size=(3, 3), stride=(2, 2), padding=(1, 1), bias=False, bit=32)
      (bn1): BatchNorm2d(128, eps=1e-05, momentum=0.1, affine=True, track_running_stats=True)
      (relu): ReLU(inplace=True)
      (conv2): QuantizableDNNS_QConv2d(128, 128, kernel_size=(3, 3), stride=(1, 1), padding=(1, 1), bias=False, bit=32)
      (bn2): BatchNorm2d(128, eps=1e-05, momentum=0.1, affine=True, track_running_stats=True)
      (downsample): Sequential(
        (0): QuantizableDNNS_QConv2d(64, 128, kernel_size=(1, 1), stride=(2, 2), bias=False, bit=32)
        (1): BatchNorm2d(128, eps=1e-05, momentum=0.1, affine=True, track_running_stats=True)
      )
    )
    (1): BasicBlock(
      (conv1): QuantizableDNNS_QConv2d(128, 128, kernel_size=(3, 3), stride=(1, 1), padding=(1, 1), bias=False, bit=32)
      (bn1): BatchNorm2d(128, eps=1e-05, momentum=0.1, affine=True, track_running_stats=True)
      (relu): ReLU(inplace=True)
      (conv2): QuantizableDNNS_QConv2d(128, 128, kernel_size=(3, 3), stride=(1, 1), padding=(1, 1), bias=False, bit=32)
      (bn2): BatchNorm2d(128, eps=1e-05, momentum=0.1, affine=True, track_running_stats=True)
    )
  )
  (layer3): Sequential(
    (0): BasicBlock(
      (conv1): QuantizableDNNS_QConv2d(128, 256, kernel_size=(3, 3), stride=(2, 2), padding=(1, 1), bias=False, bit=32)
      (bn1): BatchNorm2d(256, eps=1e-05, momentum=0.1, affine=True, track_running_stats=True)
      (relu): ReLU(inplace=True)
      (conv2): QuantizableDNNS_QConv2d(256, 256, kernel_size=(3, 3), stride=(1, 1), padding=(1, 1), bias=False, bit=32)
      (bn2): BatchNorm2d(256, eps=1e-05, momentum=0.1, affine=True, track_running_stats=True)
      (downsample): Sequential(
        (0): QuantizableDNNS_QConv2d(128, 256, kernel_size=(1, 1), stride=(2, 2), bias=False, bit=32)
        (1): BatchNorm2d(256, eps=1e-05, momentum=0.1, affine=True, track_running_stats=True)
      )
    )
    (1): BasicBlock(
      (conv1): QuantizableDNNS_QConv2d(256, 256, kernel_size=(3, 3), stride=(1, 1), padding=(1, 1), bias=False, bit=32)
      (bn1): BatchNorm2d(256, eps=1e-05, momentum=0.1, affine=True, track_running_stats=True)
      (relu): ReLU(inplace=True)
      (conv2): QuantizableDNNS_QConv2d(256, 256, kernel_size=(3, 3), stride=(1, 1), padding=(1, 1), bias=False, bit=32)
      (bn2): BatchNorm2d(256, eps=1e-05, momentum=0.1, affine=True, track_running_stats=True)
    )
  )
  (layer4): Sequential(
    (0): BasicBlock(
      (conv1): QuantizableDNNS_QConv2d(256, 512, kernel_size=(3, 3), stride=(2, 2), padding=(1, 1), bias=False, bit=32)
      (bn1): BatchNorm2d(512, eps=1e-05, momentum=0.1, affine=True, track_running_stats=True)
      (relu): ReLU(inplace=True)
      (conv2): QuantizableDNNS_QConv2d(512, 512, kernel_size=(3, 3), stride=(1, 1), padding=(1, 1), bias=False, bit=32)
      (bn2): BatchNorm2d(512, eps=1e-05, momentum=0.1, affine=True, track_running_stats=True)
      (downsample): Sequential(
        (0): QuantizableDNNS_QConv2d(256, 512, kernel_size=(1, 1), stride=(2, 2), bias=False, bit=32)
        (1): BatchNorm2d(512, eps=1e-05, momentum=0.1, affine=True, track_running_stats=True)
      )
    )
    (1): BasicBlock(
      (conv1): QuantizableDNNS_QConv2d(512, 512, kernel_size=(3, 3), stride=(1, 1), padding=(1, 1), bias=False, bit=32)
      (bn1): BatchNorm2d(512, eps=1e-05, momentum=0.1, affine=True, track_running_stats=True)
      (relu): ReLU(inplace=True)
      (conv2): QuantizableDNNS_QConv2d(512, 512, kernel_size=(3, 3), stride=(1, 1), padding=(1, 1), bias=False, bit=32)
      (bn2): BatchNorm2d(512, eps=1e-05, momentum=0.1, affine=True, track_running_stats=True)
    )
  )
  (avgpool): AdaptiveAvgPool2d(output_size=(1, 1))
  (fc): Linear(in_features=512, out_features=100, bias=True)
)

Epoch: 0
2020-10-03 11:04:10.394385 epoch: 0 step: 0 cls_loss= 4.74147 (1167 samples/sec)
2020-10-03 11:04:11.479921 epoch: 0 step: 10 cls_loss= 5.23207 (1179 samples/sec)
2020-10-03 11:04:12.209140 epoch: 0 step: 20 cls_loss= 5.00644 (1855 samples/sec)
2020-10-03 11:04:12.940998 epoch: 0 step: 30 cls_loss= 4.34416 (1850 samples/sec)
2020-10-03 11:04:13.676257 epoch: 0 step: 40 cls_loss= 4.34645 (1843 samples/sec)
…
